tictactoe/final_model.pth (torch, 119007 bytes, 71 tensors)

conv1.weight f4 [16, 3, 3, 3]
00000000: f3c3 1fbd 5071 10be 4349 1b3e 14ad 2f3d
00000010: 2de2 753d a755 2bbe 9d53 05bd b2a1 e43d
00000020: a65a 3cbe ba58 24be b1c4 5fbe 2f03 243e
00000030: e694 b1bd 4b92 133e 9152 193e 4e83 543e
00000040: 753b 3ebd d90f 20be 8935 653d 03af e03d
00000050: 6732 ddbd a7fd ef3d 09e4 a93d 981c ccbd
00000060: b710 233d 4a72 d63d d622 00be 0e69 003e
00000070: fbc5 2cbc af2c 23bb 44a7 453e 6e6c d2bd
00000080: ae1b 233e 4b2d 15be a53b ffbd f73b 5c3d
00000090: 3f40 0abe 1237 9ebd c3ad 64bd a89b eb3c
000000a0: 337b 093e 751e d2bd 0b7b 32be bc1c 99bc
000000b0: c093 16be 9336 793d 6e9d e4bd 203e 09be
000000c0: 2281 c6bd 7ac3 15bd af44 d33d d3b8 34be
000000d0: f411 0a3e 40b7 bfbd d6a4 e7bd bd61 b53d
000000e0: 312d 51bd 804f 8d3d 133e 143c dd19 ed3c
000000f0: c022 0cbe 66cf 403e 79fe 6e3d e8cc 3e3e
00000100: cbd8 533e 333a 42be 2bfc 88bd 9e4c c33c
00000110: 6009 f3bc a921 a73d b378 0bbd 2005 27be
00000120: bf2b b8bd 9300 c9bd 17bd 373e f7f2 70bc
00000130: dec0 2cbb 2f95 20be d968 34be 5f99 21bd
00000140: 8593 3f3e 508c 063e c9fb c5bd 64d8 6ebd
00000150: 1f28 b83d e79f 0b3e ea46 efbd 613d ec3d
00000160: 1bc7 feb9 eeb9 09be cfcc 5c3d 309f b1bd
00000170: b690 64bd ecb9 d8bd dcaa 79bd e5c3 edbd
00000180: c286 d23c 0f73 ccba aef2 26be a63d 2e3d
00000190: 39cf 1e3e 78b9 643c d1e1 55bd d790 b63d
000001a0: 18eb 99bd 3a71 dfbd 8abc 923c 6e71 4ebe
000001b0: 09bf 06be 4c1d f2bd 1e5d 2c3c daf0 3b3e
000001c0: bbdf 3ebe 83f5 39bd fab0 133d c411 503d
000001d0: 4d33 05bd 210b 30bd 25b7 d0bd 5977 8bbd
000001e0: b84b 993c 8ca4 4a3c 5d08 55be 3791 863d
000001f0: 1fa8 eabd baee b7bd 1873 283e c6ef d1bd
00000200: d7eb b1bd ef0d 31bc 0b0a ddbd 64a8 64bd
00000210: 2a6c 51be 427d 0a3e a203 58be 407b 0d3e
00000220: cd7d 5fbe eb61 4d3e 4c79 003e eccb 153d
00000230: 5779 80bc 91fa ac3d 7ef1 343e d0e1 6ebd
00000240: 3dac 003e 5e39 51be c412 233e 379a 05be
00000250: de62 e5bd 1bc8 f8bc 9904 073e 8536 da3d
00000260: da99 f1bd 183a ffbd 8e2f 8cbd dcd0 873d
00000270: d605 02be 19fc a8bd 2011 7fbb 49e8 29be
00000280: 8bc4 1b3e a614 3b3d 51f6 143e 0d85 623e
00000290: 24db 9a3d 5e56 e4bc ec0f 36bc adb7 8abd
000002a0: 371d ba3d 4da5 2ebe fc37 ed3c 0896 52bd
000002b0: 184b 353e 927c cb3d 5e18 0dbe 4f44 303e
000002c0: f937 9e3d 8755 793d 49cc 103e 7d4f 1dbe
000002d0: 2a8e 2b3e c6e0 72bd f5ed 463e d0f8 9fbd
000002e0: 3a07 1cbd 3fee 69bd 3130 193e e3d6 0dbe
000002f0: 9701 d6bd a23e ebbd 318b e23d c10f 233e
00000300: b084 48be 44bf f03d b073 b5bd 99aa 383d
00000310: 8d2f 013e 5487 21be 84fa 063d fb25 763e
00000320: 9f4d f83d 5800 e43d 8130 71bd 2e1e 303c
00000330: 58f3 cf3d 3770 97bd f6e8 bdbd 1963 35be
00000340: eacf 083e 0e66 133d 9298 1d3e 4722 a93d
00000350: 57c6 963d 51f6 0a3e 451c 053e b715 133e
00000360: 0427 ca3d db44 2f3e 5a64 1ebd 40ad 0b3e
00000370: c683 03be 4d6f 2e3c f3fe 41be 3fef 053e
00000380: 7f2e c2bd 245a d23d cfba 1e3d c2c9 733e
00000390: 7bdc cd3d 0c7e 2dbe 2260 01be 2b77 07be
000003a0: 8ce7 edbd ee82 103e 7a08 a23d c6d5 30be
000003b0: 8ca4 e43d 2849 2ebd ac01 883d db76 00be
000003c0: a735 62bd 157c 99bd cde8 043e 7358 28be
000003d0: c0a7 ac3d b5bb 9bbd 25ba 2fbe 2a16 0b3e
000003e0: 33eb c83d b345 c7bd 54e0 123e 0650 433e
000003f0: 381e dcbd dba6 743c 47f3 01be 0469 91bd
-0.03900523 -0.14105725 0.15164666 0.04288967 0.06003015 -0.16731893 -0.032550443 0.111636534
-0.18393955 -0.16049471 -0.21852376 0.1601684 -0.08670978 0.14411275 0.14972903 0.20753214
-0.04644342 -0.15631045 0.05595926 0.10970881 -0.10800629 0.11718302 0.082954474 -0.09966391
0.039810862 0.10471018 -0.12513289 0.12540075 -0.010545249 -0.002489846 0.19302088 -0.102745876
0.15928528 -0.14568059 -0.12462548 0.053768124 -0.1350107 -0.077253476 -0.055829775 0.028760746
0.13425903 -0.102597155 -0.1742975 -0.01869046 -0.147048 0.06084306 -0.1116284 -0.13402605
-0.09692599 -0.036563374 0.10315835 -0.1764863 0.13483411 -0.09361124 -0.11310737 0.08856533
-0.05106849 0.06899929 0.009048003 0.028942997 -0.13685131 0.18829116 0.058348153 0.18632853
0.20688169 -0.18967514 -0.06688722 0.023840245 -0.029667556 0.08160717 -0.034050655 -0.16310549
-0.08992719 -0.09814563 0.17943226 -0.014706365 -0.0026360075 -0.15681909 -0.17618121 -0.039452907
0.18708618 0.13139462 -0.09667165 -0.058311835 0.089920275 0.13635217 -0.11683448 0.115351446
-0.00048595 -0.13449833 0.05390626 -0.08672941 -0.05580207 -0.10582337 -0.06095396 -0.116096295
0.025699023 -0.0015598255 -0.16303512 0.04253926 0.15508737 0.013960235 -0.05221731 0.08914345
-0.07515544 -0.10910268 0.017912168 -0.20160457 -0.13158812 -0.11821994 0.010520248 0.18353596
-0.18640034 -0.045400154 0.03605745 0.050798193 -0.032519627 -0.042979363 -0.10191182 -0.06809873
0.018712863 0.012368333 -0.20803972 0.06570666 -0.11457848 -0.0898108 0.16450155 -0.10250811
-0.08687561 -0.010806545 -0.10792931 -0.055824652 -0.20451418 0.13524345 -0.21095136 0.13816547
-0.21825333 0.20056884 0.12546271 0.03657143 -0.01568286 0.08446229 0.17670247 -0.05832082
0.12565704 -0.2043204 0.15925127 -0.1304711 -0.11200498 -0.030368855 0.13185348 0.1065493
-0.11796923 -0.124622524 -0.06845008 0.06631634 -0.12697539 -0.08251209 -0.003892012 -0.16592516
0.15211694 0.04567399 0.14547087 0.22121067 0.07561329 -0.027873214 -0.0111121945 -0.067733146
0.090876035 -0.17055245 0.02895736 -0.051412612 0.17704427 0.09935869 -0.13778827 0.17213558
0.0772552 0.06087258 0.14140429 -0.15362354 0.1675345 -0.059296392 0.19426711 -0.07811129
-0.03809283 -0.057111975 0.1495979 -0.13851504 -0.10449522 -0.11486556 0.11061705 0.15923978
-0.19581866 0.11755231 -0.08859956 0.04508457 0.12615795 -0.1577428 0.032953754 0.24037926
0.1212418 0.11132878 -0.058884148 0.010749383 0.10153836 -0.0739445 -0.092729494 -0.17713584
0.13360563 0.035986 0.15390232 0.08258491 0.07362049 0.13570525 0.12999065 0.14363752
0.09870723 0.1711611 -0.03866992 0.13640308 -0.12843236 0.010646653 -0.18944912 0.13079546
-0.09481525 0.10271099 0.038752373 0.23807433 0.10051819 -0.16942614 -0.12634328 -0.13229053
-0.1161643 0.14112446 0.07911773 -0.17269048 0.11164197 -0.042550236 0.06640944 -0.1254534
-0.055226948 -0.0749437 0.12979431 -0.1643999 0.08430433 -0.07604162 -0.17160852 0.13582674
0.09810486 -0.09730091 0.14343387 0.19073495 -0.10747951 0.01493236 -0.12690459 -0.07100108

conv1.bias f4 [16]
00000000: c9af 26bb e45b 803d 4ed7 e8bd ea52 e23d
00000010: 3d9b 323d dccf 553d 2462 2fbd 8161 d13d
00000020: 53ce 25bd d41b 1c3e d30f 013e 7a38 8c3d
00000030: 5e55 03bd 0d46 c73c a078 2d3e 1a97 433a
-0.0025434366 0.06267527 -0.11369191 0.11050971 0.043605078 0.052200183 -0.042818204 0.102236755
-0.04047997 0.1524499 0.12603693 0.068467095 -0.032063834 0.024325395 0.16940546 0.00074611756

bn1.weight f4 [16]
00000000: 0d09 823f b03c 7c3f 1c7b 803f ac0b 873f
00000010: 95c5 803f ad93 823f 89db 7d3f 2464 813f
00000020: 602e 803f 8b16 853f 8117 7e3f 84c2 753f
00000030: 09d1 823f d0a4 7e3f 5798 773f b471 783f
1.0159012 0.985301 1.003757 1.0550437 1.0060297 1.0201317 0.9916311 1.0108685
1.0014153 1.0397505 0.99254614 0.9599993 1.0220042 0.99470234 0.9671683 0.970485

bn1.bias f4 [16]
00000000: 5ac2 c63c 2615 dbbc d5ac 2e3c a7c9 af3c
00000010: bad2 4d3b 860b 0d3d 1f99 fe3c 289f 2c3c
00000020: 8e12 ba3a 4e6f 753d 72a2 6d3d 0076 01bd
00000030: 599c 023d 2b7d d4bc b9cf 5d3b 7ddf f7bc
0.024262596 -0.026743483 0.010661324 0.02145846 0.003140612 0.034434818 0.031078873 0.010535993
0.0014196204 0.0599206 0.058016248 -0.031606674 0.031887386 -0.025938591 0.0033845736 -0.030257935

bn1.running_mean f4 [16]
00000000: 524c 993d cc30 bbbd e360 12be bee5 a23c
00000010: 9d44 9ebe 70a4 453a d646 bb3d fc87 d43e
00000020: 4f14 92bd d204 853e ebd9 383e 06fe 99bb
00000030: 7412 293e d618 0b3d 4c0c 8e3e 71e9 cdbd
0.0748526 -0.09140167 -0.14294772 0.01988494 -0.30911723 0.0007539457 0.0914437 0.41509998
-0.0713278 0.2598024 0.18051879 -0.0046994714 0.16510946 0.033959232 0.27743757 -0.10054291

bn1.running_var f4 [16]
00000000: 1f0d 7d3d 2189 383d 9c43 f53c 4bda 243d
00000010: 97d7 913d cd9f 5c3d cbcc cb3d 7a41 7a3d
00000020: 9b2d af3d 9345 633d 5b4f 7d3d 5476 063d
00000030: e47e 413d 9df2 263d 3266 993c de19 be3d
0.06178009 0.04505265 0.029939465 0.040247243 0.071211986 0.053863335 0.099511705 0.0610976
0.085536204 0.055486273 0.061843257 0.03282769 0.047240153 0.040758718 0.018725488 0.092822775

conv2.weight f4 [32, 16, 3, 3]
00000000: 199a 23bc fa61 febc 7cdb 4f3d 6909 823d
00000010: 9bff 953d 6c50 a3bd a075 15bd 9738 a6bd
00000020: cf96 453c 110f 973c 18c6 a4bd c32a ad3d
00000030: ad20 b8bc b6fb e73c 359f 0e3d 498c 573d
00000040: 1807 b63d 0399 d53c 8af1 d23d 17d0 bbbc
00000050: aa0b 52bd b853 b13c 14ad 82bd 4d64 b9bc
00000060: 6a56 ea3c 3e9f a839 ec94 183d cdbb 523d
00000070: 6cfa c2bc 7e5b ddbc 3e15 8cbd d17f e73d
00000080: f342 bd3d 3107 b03b 25af 19bd 5118 a4bd
00000090: ba99 aabd b741 f9bc 264e 943d 7a9d 96bd
000000a0: 7932 813d 027a a03c 0182 053d 6539 f1b9
000000b0: dbeb 1c3d be92 99bb 6ffc ec3c 8cb3 31bd
000000c0: 4365 0a3d 85cd 66bd 27da 59bb 21e5 1ebd
000000d0: f8e3 283c 4ca2 1dbd 6fd3 303d 9b08 b8bd
000000e0: 9064 c3bc 9f70 b03d ac63 8dbd 9d79 ca3d
000000f0: e242 893a e09f 2e3d bce9 923d 3046 a13d
00000100: cc2e 8339 0be3 4a3d 03ea 5b3d c95f c73c
00000110: b0ff 41bd a335 ddbc 45fd 093d 2f5d 073d
00000120: a8e9 d73c 3977 f43b 80b7 42bd 4676 bbbc
00000130: 2fb8 8b3c d045 083d 24c8 273d 85ad be3b
00000140: cbcb 6abd cf29 953c 895b 8dbd 272e 9dbd
00000150: aaef 51bd 9574 0c3d 57af aa3d 928e 43bd
00000160: 1cbd 983a 7077 70bd ce6c ebbc 4c20 83bd
00000170: 3c3b ac3c dce5 203d 3b38 343b e7ff 2bbd
00000180: 880a 3fbd 4815 8a3d b837 19bd 4a9b 82bc
00000190: a8c8 163d 1fda 113d 5def 6c3d 6468 613d
000001a0: 132a 623d c34f 933c 41a1 813c 348e debc
000001b0: 46d5 e63c a33b 87bd 6e42 92bd 05aa 82bd
000001c0: 71b2 bd3c 87e4 3b3d 2d65 4f3d 07f2 0ebb
000001d0: da13 6abd 64ba 43bc 13a2 41bd 39a3 60bc
000001e0: 51e3 213b 6872 b83b 7428 a5bd f6f4 7a3d
000001f0: 42d3 a1bd 0fc8 5ebc b352 e7bc 1c98 9e3b
00000200: a8b7 2d3d 68ad 2a3d 247e fabc f1b6 9d3b
00000210: c402 603c c476 2bbd b7d1 94bc 880b 11bd
00000220: 2112 84bc ec0f 343d f8da 9d3d c093 633d
00000230: 9905 5f3d 49ad 07bb 171b 1ebd ac56 c83c
00000240: c9a0 04bd 40d0 263d 59b3 5fbd 53ca 1dbd
00000250: 7001 82bd c737 86bd 3c2d edbc a342 a33d
00000260: 5846 353d f3df 58bd dd06 3a3c 0e29 513d
00000270: c53e 513d 92fc 023d 350b 8ebd df85 9c3d
00000280: 465e 62bd 6ced dcbb 5393 933d f9cb 42bd
00000290: a44b 2ebd ac00 5c3d 59cc d8bc 231e 44bd
000002a0: 6501 c73b e2cd 6b3d 1805 913b 0ae3 9dbc
000002b0: ee3b 173d 036e 503c 3f53 343c 4363 d6bc
000002c0: cb3e 5e3d d69b 87bd fd24 59bb 454e bcbd
000002d0: 6062 b9bd 6417 13bd fc79 beba 3af5 d9bb
000002e0: 1deb 9f3d 934a 47bd c069 07bd e5f5 3abd
000002f0: dbb4 39bd 9ed0 91bd f55e 83bc 3e8e 7abd
00000300: 7a46 9f3a f533 57bd c652 3e3c ca65 c6bd
00000310: 499b 1d3c 2914 95bd ac9b 9cbc 89a7 533d
00000320: d3c4 f23d 3de3 f63c 9e10 9e3d aa1a 083d
00000330: 2e6f feba c2b0 c3bd 8c28 fb3c c576 94bd
00000340: d590 d0bb 1e3d 343d e413 fdba 03a7 46bd
00000350: 9318 5abd 1c63 8d3c d9c4 8a3d 2a0d de3d
00000360: 44d7 09bd aff9 d1bc ee4a 88bb ed68 77bc
00000370: fb82 113c 85dc 173d 6e57 95bd ffe9 1ebc
00000380: 5753 793c 2ff9 f93c 7f0c 483c fc86 54bd
00000390: a815 8cbd 0c9b 9cbd ba86 52bd 30c7 b03d
000003a0: c55a 54bc 0c11 cb3c 18fc b7bc 0968 0e3c
000003b0: 8545 f6ba 6112 9f3d 68b7 f13d 3c3c 74bd
000003c0: ac20 a3bc a771 263d e1fe d739 4e5a 843b
000003d0: 3461 af3d c0f9 b03d 418f a63d 0f23 55bd
000003e0: 1eb9 573c dd0f 7bbd e666 febc acd3 283c
000003f0: 9444 21bd fd61 983c e86a 5dbd b717 2c3d
-0.00998547 -0.031052578 0.050746426 0.06349451 0.073241435 -0.07974324 -0.03648913 -0.081162624
0.012059881 0.018439801 -0.08045596 0.08455422 -0.022476519 0.028318267 0.0348198 0.05262402
0.08888072 0.026073938 0.10299976 -0.022926373 -0.051280655 0.021646366 -0.06380668 -0.022630835
0.028605659 0.00032162102 0.037251398 0.051448632 -0.023801051 -0.027021166 -0.06839989 0.11303676
0.09241285 0.005371951 -0.037520546 -0.080124505 -0.08330102 -0.030426843 0.07241468 -0.07354255
0.06308455 0.019589428 0.032594685 -0.00046009864 0.038310867 -0.0046866825 0.028928963 -0.04338412
0.033787977 -0.056348342 -0.0033241601 -0.038792733 0.010308258 -0.038484856 0.04317039 -0.08986016
-0.023851663 0.08615231 -0.069037765 0.09886477 0.0010472203 0.042632937 0.071734875 0.07874715
0.00025021133 0.04953293 0.053689968 0.024337666 -0.047362983 -0.027003115 0.033688802 0.03304785
0.026356533 0.0074605015 -0.04753828 -0.022883546 0.017055599 0.033269703 0.040962353 0.005819025
-0.05732326 0.018208412 -0.069022246 -0.076748185 -0.051253952 0.03429087 0.08334225 -0.047743388
0.0011653039 -0.058707654 -0.028738406 -0.064026445 0.021024339 0.03928171 0.0027499336 -0.041992094
-0.046640903 0.0674234 -0.037406653 -0.015943188 0.036812454 0.035608407 0.057845462 0.055031195
0.055215906 0.01798237 0.015823962 -0.027167417 0.028177869 -0.06603172 -0.07141577 -0.06380085
0.023156377 0.045872238 0.050633598 -0.002181174 -0.05714784 -0.011946294 -0.047273707 -0.01371079
0.0024702142 0.0056288727 -0.080643564 0.06126877 -0.07901622 -0.013597502 -0.028237676 0.00483991
0.042411476 0.04166928 -0.030577727 0.004813068 0.013672534 -0.04186131 -0.018166406 -0.035411388
-0.016121926 0.043960497 0.077077806 0.055560827 0.054448698 -0.0020702651 -0.038600054 0.02445539
-0.0323799 0.040725946 -0.0546144 -0.03852303 -0.063479304 -0.065536074 -0.028952233 0.07971694
0.04425654 -0.05294795 0.011354175 0.051064543 0.051085252 0.03197915 -0.06935731 0.076427214
-0.055265687 -0.00674217 0.07205834 -0.047557805 -0.042552605 0.05371158 -0.026464628 -0.047880303
0.0060731643 0.057569392 0.004425656 -0.0192733 0.036922388 0.012721541 0.011006176 -0.026170379
0.054259103 -0.0662152 -0.003313362 -0.09194616 -0.09051967 -0.03591098 -0.0014532204 -0.0066515477
0.07808516 -0.048655104 -0.033059835 -0.04564466 -0.045338493 -0.07119869 -0.01603649 -0.06117081
0.0012151741 -0.052539784 0.011616414 -0.096873835 0.009619542 -0.07279236 -0.019117199 0.051673446
0.118539475 0.030137653 0.07718013 0.033228554 -0.0019411796 -0.09555198 0.030658983 -0.07249216
-0.0063649216 0.0440036 -0.0019308296 -0.04849912 -0.053246092 0.017259173 0.06775827 0.108423546
-0.03365256 -0.025631754 -0.004159323 -0.0151007 0.008881326 0.03707554 -0.072920665 -0.009699344
0.015217624 0.030514328 0.012210011 -0.051886544 -0.06840068 -0.0764676 -0.051398017 0.08631742
-0.012961094 0.024788402 -0.022459075 0.008691796 -0.0018789029 0.077671774 0.1180256 -0.059627756
-0.01991304 0.04063573 0.00041197895 0.0040390855 0.08563462 0.08641386 0.08132792 -0.052035388
0.013166694 -0.061294425 -0.031054925 0.010304373 -0.03937204 0.018601412 -0.054057032 0.042014804

conv2.bias f4 [32]
00000000: 05f1 893d 0f0f 583c ff95 72bd 6ec7 563d
00000010: 9464 24bd 2b5c 2fbc ea2d 383d 871c 143d
00000020: a8cb a9bd 3bde 903d 5de5 7bbd 5f54 83bb
00000030: b400 7e3d ec30 92bd d6ff cfbc 765d 003d
00000040: e76e 1c3d 110e a6bd 1e0e 9ebd 4e8a 463d
00000050: 51b0 4abc af41 073d 4475 d7bc 9059 423d
00000060: c544 413d de23 9b3d dca9 03bd caff 993d
00000070: ee43 a1bd 4527 2bbd cf5b a73d dc1a e8bb
0.06735424 0.013187184 -0.05922508 0.052436285 -0.04013498 -0.010703127 0.044965662 0.03616002
-0.082907975 0.07073637 -0.061498035 -0.0040078606 0.06201239 -0.07138237 -0.025390547 0.03133913
0.038191702 -0.08108152 -0.077175364 0.04847174 -0.012371139 0.033021625 -0.026301034 0.047448695
0.047184724 0.075752005 -0.032144412 0.07519491 -0.07874285 -0.041785497 0.08171808 -0.00708328

bn2.weight f4 [32]
00000000: 7c99 813f 375b 803f 0afa 803f 7e6e 813f
00000010: 95c8 763f b4b7 853f f04f 7a3f 92b2 803f
00000020: adea 803f e579 7c3f 439d 783f 4924 833f
00000030: 7ad1 7e3f ab37 7c3f 2dc5 7f3f 5798 7c3f
00000040: 8348 7d3f a3e1 7f3f f06e 7b3f cea8 7d3f
00000050: 3aa5 7d3f a278 7a3f 17de 7f3f 1c32 7f3f
00000060: 49c8 813f 90e8 7b3f 600b 853f c38c 803f
00000070: c476 873f 3065 843f dbaa 7e3f 6a88 7f3f
1.0124965 1.0027837 1.0076306 1.0111845 0.96399814 1.0446687 0.97778225 1.0054495
1.0071617 0.98623496 0.9711496 1.0245448 0.99538386 0.9852244 0.9991024 0.9866995
0.9893877 0.9995367 0.9821615 0.990857 0.9908024 0.9784032 0.9994826 0.99685836
1.0139247 0.9840174 1.0394096 1.0042957 1.0583119 1.034338 0.99479455 0.99817526

bn2.bias f4 [32]
00000000: 4e90 e338 8baa eabb 68da 3c3b d3b0 49bd
00000010: 69bc 35bd b4f6 4e3c 7fe9 b0bb 3949 433b
00000020: 6f84 923d a6e7 24b8 8945 b8bc bee9 40bc
00000030: d319 99bc 551f d9bc a4f5 25bc 7300 debc
00000040: c8d3 ae3b d42c 28bc 7572 0abd 24c6 53bc
00000050: d171 0c3c 7282 babc 4a1d 68bc d7d6 9cbc
00000060: b384 dbbc c778 b2bc 1524 33bc 642b 8fbc
00000070: 7e62 833d 381e 993d cfd7 073c 7172 8cbb
0.00010851082 -0.0071614436 0.0028816704 -0.0492409 -0.044369135 0.012632061 -0.0053989287 0.0029798283
0.07154166 -3.9316386e-05 -0.022494094 -0.0117744785 -0.018689072 -0.026504198 -0.010129366 -0.027099824
0.005335305 -0.010264594 -0.03380056 -0.012925658 0.008572058 -0.02276728 -0.014167139 -0.019145412
-0.026796674 -0.021786107 -0.010933896 -0.017476745 0.0641527 0.07476467 0.008291199 -0.0042861034

bn2.running_mean f4 [32]
00000000: 904d 5e3e f5dc 75bd 1585 01be 2acf c93d
00000010: be47 3abe 94d4 bc3d fc77 283c 2453 cbbe
00000020: a4c2 5b3d 287d d1bd 96fc 6bbd dc59 853d
00000030: 646f b2bd 8ab0 b13d e09a 973d 207d 253e
00000040: a1d9 0cbe 7c90 1dbe a583 afbe 442f b6bc
00000050: 1695 613e 6fc9 fdbd e27b 01be 8a3a 813e
00000060: c101 073e aabf 8d3e 49f8 06be 8409 37be
00000070: 1616 083e 9421 dabd 3b03 60bd 096a 953e
0.21709275 -0.060025174 -0.12648423 0.098539665 -0.1819143 0.092202336 0.010282513 -0.3971187
0.05365242 -0.1022895 -0.05761393 0.0651128 -0.08712652 0.0867625 0.07402587 0.16161013
-0.13754894 -0.15387148 -0.34280124 -0.022239335 0.22029528 -0.12391936 -0.12644914 0.25239974
0.13184263 0.2768529 -0.13180651 -0.17874724 0.13289675 -0.10650936 -0.05469058 0.2918246

bn2.running_var f4 [32]
00000000: b53c 483d 8aa6 953d 708d bd3d a94b 183e
00000010: f8ed 093e adbd 9f3d 24e5 ea3d 3148 ce3d
00000020: ac29 a33d 8075 943d 9373 203e d920 cd3d
00000030: b98c a73d 116f 9b3d 2c9e d73d 8910 b73d
00000040: cece 113e eb48 a73d 7f46 ad3d 91ad 213e
00000050: 7b67 183e b189 ce3d 271e a43d 5f19 cc3d
00000060: 0e67 5d3d 15b5 d83d b427 a53d f653 b13d
00000070: aaaa 9f3d 01a7 513d 2988 0c3e 378e fb3d
0.04888602 0.073071554 0.09255493 0.14872612 0.13469684 0.0779985 0.11469486 0.10072363
0.07966933 0.07248974 0.15669088 0.10016031 0.081811376 0.075895436 0.10528216 0.08938701
0.14239046 0.08168205 0.08460712 0.15788867 0.14883225 0.10084856 0.080135636 0.09965777
0.05405336 0.10581414 0.080642134 0.086585924 0.077962235 0.051184658 0.13723816 0.12282985

policy_conv.weight f4 [8, 32, 1, 1]
00000000: c394 9d3c fd6d 4b3e d9fe 05bd 3b62 1b3e
00000010: 0710 a9bd c242 823d 0ec0 a83d 3d40 89bd
00000020: afb7 b8bd 08af a3bd 9cb0 fcbb b0b4 b43d
00000030: c8c6 473e fbbd e03c fd28 98bd 6ce2 473c
00000040: 1714 223d c937 ff3d f274 7b3c 2dd2 5ebd
00000050: bc3b 17be 4c3e efbd 85ee 8bbc 6ce3 1f3e
00000060: 5407 a8bd 00c1 54bd 8e29 b1bc e1e0 87bb
00000070: d87d dfba ba69 8abc 62a4 223e 10d0 603d
00000080: d81b 62bb 5f03 c2bd 4937 7e3d 66e3 2cba
00000090: f07e f93d cae7 7c3e c516 2ebe a6cc e0bd
000000a0: db63 37bd d226 b73d 5ec8 39bc 5b5b 003e
000000b0: f5a6 37bd 60bb 45bd 591c 0ebd 2c92 4b3d
000000c0: c67b f3bd 2a81 00be d90c b0bc b7d3 c33c
000000d0: 8027 7d3d 49df cfbd 4d80 c83d 7486 233e
000000e0: 7fd1 7fbc 28da 69bd 62e3 fa3d ec91 bdbd
000000f0: b847 383d a88f 193c 3f00 54be 7b96 16bb
00000100: 8d73 013e eee4 f43d ee06 2abd 16eb 9f3d
00000110: a99d ff3d 8fc6 7ebd 8f63 afbd acf9 e13d
00000120: efa2 e93d 9a42 10be 1e68 dfbd 0b2d dcbc
00000130: 0593 123e 64c9 9cbd b9e5 213e f1ec 003e
00000140: a65d 5cba 7314 d9bc d999 a43d 989a 1a3e
00000150: e1a2 d43d ad07 a1bd e590 c73d 9744 ea3c
00000160: 6e61 1abd 99e9 4dbd 44bb f33d 0100 aabd
00000170: 0532 f13d 337f 663d 6fe6 aebd ef68 aa3d
00000180: 8237 83bd c530 0e3e 7ecf b2bc 7e1d 153d
00000190: 8a0a ab3d 91b6 18be cab1 d3bd dc62 123e
000001a0: 46cb 083e 64ee f8bd 308b 903d 490b e03d
000001b0: 8b74 b0bd fe82 8e3d 42d2 fabd 96d3 b63c
000001c0: 0b85 a8bd 225c 0abe a8f0 aebb 3155 bbbc
000001d0: 54be d53c bd96 a53d 1e4e c8bd 1374 57bd
000001e0: da65 26be e158 743c ffc1 193e a8b9 bfbd
000001f0: ae9c eb3d 5370 48be 2699 cabd 0043 ae3d
00000200: 2f93 8ebc 70ae e83d 346e 2a3e 656a b33d
00000210: b155 d4bc a0d5 173e 81ae 08be 94cf 9e3d
00000220: 2e82 00be 1478 913c c7b2 09be 682c 09be
00000230: 495f 68bd e653 383e 1232 8ebc 0a96 683d
00000240: a6a0 2a3e 1455 f13c 2b73 213d 5a74 b13d
00000250: 0ab3 c73c a712 b6bd dcaa 363e 814f 99bd
00000260: 45a5 203e d23d d73d 3b7a babd 1fb8 423c
00000270: fcde 65bd 2fde 4e3d fc25 623d fd03 553d
00000280: 990d f4bd baa6 393d 621e e0bc 1513 debd
00000290: 9cbb d9bc 77c8 053d 1c60 1a3d 4c8d ba3d
000002a0: 6985 463e f9f5 c5bd 35fa 59bd 5901 bd3c
000002b0: 2864 b63d a5c0 05bc a15c aebd 57f6 ab3d
000002c0: 6e9f 58bb 33af 7dbd 2226 ecbd 6543 f43d
000002d0: 672a febd 1d73 2a3e a0fd 0cbe f305 283e
000002e0: d32e 31be ee42 0e3e 91fe 97bd d7f8 a53d
000002f0: a12f 21bc 3a8b 0ebe c527 8e3c dc8f 2e3d
00000300: 7416 fb3d 7ea0 2d3e a8c8 4bbe 6395 98bd
00000310: fe40 99bd 5bb1 0c3e 213c c1bd ba39 973d
00000320: 30bc 1bbe 8ab8 28bd 70c3 673c 9d2d 8c3d
00000330: 8eec 42be 561d b4bc 96ba 213e 850c 4fbd
00000340: d480 de3d 3c0f 26bd fce7 353e 0b71 0e3d
00000350: 09e7 23bd ed18 b43d 0ec2 b3bd ccd5 623d
00000360: 9523 af3d 4a9d 1cbe eb14 30bd a3ab 40be
00000370: 56c3 3f3e 00a4 79bd 945c 07be 4fd2 f7bd
00000380: e335 23be 8619 343e 73c9 593c 9940 933c
00000390: 3ab8 063e bc31 553d 1104 ef3b 8001 49be
000003a0: 205e bbbb df61 7bbd b5e3 013d f2f8 b43d
000003b0: 0942 293e 0eba 88bc 4e61 233e f157 d1bd
000003c0: 13b1 74bc 7b17 203e cdd9 713c 929f fabc
000003d0: 200b 883d 680a 963c 88ef e7bd 70d9 f03d
000003e0: 99b2 4d3e 4818 08bd 2b03 a6bd f3b0 bd3d
000003f0: 361c 48be 4342 fd3b 18d8 14bd ec5c 3bbd
0.019235974 0.19866176 -0.032713745 0.1517419 -0.0825501 0.06360389 0.082397565 -0.067017056
-0.0901941 -0.07992369 -0.007711483 0.08823526 0.19509423 0.02743434 -0.07429693 0.012199979
0.03956994 0.12461812 0.015347706 -0.054399658 -0.1476888 -0.11681804 -0.017081508 0.15614098
-0.08204523 -0.05194187 -0.02162626 -0.0041466807 -0.0017051054 -0.016896117 0.1588302 0.054885924
-0.003450146 -0.09473299 0.062064443 -0.00065951643 0.121824145 0.24697796 -0.17000873 -0.109765336
-0.044772964 0.08942951 -0.011339275 0.1253485 -0.044836957 -0.048274398 -0.034695003 0.049699947
-0.11888842 -0.12549272 -0.021490501 0.023904664 0.06180525 -0.1015001 0.097900964 0.15969259
-0.015613913 -0.057092816 0.12250401 -0.09256348 0.04499027 0.009372629 -0.20703219 -0.0022977877
0.12641735 0.119577274 -0.041510515 0.07808511 0.12481243 -0.06220108 -0.08563911 0.11033949
0.1140803 -0.14087906 -0.10908531 -0.026876947 0.14313896 -0.076556 0.15810288 0.12590386
-0.00084062887 -0.026499009 0.080371566 0.15098035 0.10382629 -0.07862792 0.09744433 0.02859716
-0.037690572 -0.050271604 0.119009525 -0.08300782 0.117771186 0.05627365 -0.085400455 0.08320796
-0.06407072 0.13885792 -0.021827456 0.03640508 0.083516195 -0.14913394 -0.10336645 0.14295524
0.13358793 -0.121548444 0.07057798 0.109396525 -0.08615979 0.069585785 -0.12247135 0.022317689
-0.08228501 -0.13511708 -0.005338747 -0.02286777 0.026091732 0.08085392 -0.09780525 -0.05260093
-0.16249791 0.0149137685 0.1501541 -0.09361583 0.11504494 -0.19574098 -0.09892492 0.08508873
-0.017404167 0.11361396 0.16643602 0.087605275 -0.025919767 0.14827585 -0.13347818 0.07754436
-0.1254966 0.017757453 -0.13447104 -0.13395846 -0.056731496 0.18000755 -0.01735786 0.056783713
0.16662845 0.029459514 0.039416473 0.086647704 0.024377365 -0.088902764 0.17838615 -0.07485867
0.15688045 0.10509838 -0.09105345 0.011884718 -0.056120858 0.05050486 0.055212006 0.052005757
-0.11916656 0.04532502 -0.027358238 -0.10843483 -0.026578717 0.03266188 0.037689313 0.091089815
0.1938683 -0.09666056 -0.05321713 0.023071932 0.08905822 -0.008163606 -0.08513761 0.08396595
-0.0033054012 -0.06193466 -0.11530711 0.11926917 -0.12410431 0.16645475 -0.13768625 0.1640852
-0.17303018 0.13892719 -0.074216016 0.08104103 -0.009838016 -0.13920298 0.017352948 0.042617664
0.12260142 0.16955754 -0.19900763 -0.07450368 -0.074830994 0.1373953 -0.09435297 0.07384057
-0.15208507 -0.041191615 0.014145717 0.068446375 -0.19035551 -0.021986645 0.15793833 -0.05054905
0.10864416 -0.040541872 0.17764276 0.034775775 -0.040015254 0.08793817 -0.08777247 0.055379674
0.085517086 -0.15294376 -0.0429887 -0.18815474 0.18726858 -0.06094742 -0.1321891 -0.1210066
-0.15938525 0.17587861 0.013292658 0.017975139 0.13156214 0.052049384 0.007294186 -0.19629478
-0.0057180077 -0.061372634 0.0317113 0.08836545 0.16529097 -0.01669028 0.15955088 -0.102218516
-0.014934796 0.15633957 0.0147614 -0.030593667 0.06642747 0.018315509 -0.11324984 0.11760223
0.20087661 -0.03322628 -0.08106073 0.09262266 -0.19542012 0.0077288463 -0.036338896 -0.045742914

policy_conv.bias f4 [8]
00000000: 54fd 293e 3c11 b53d 1d36 363d 1205 25be
00000010: 8dd6 383d 52b3 ab3d 875e 9bbc 9018 ac3d
0.16600543 0.08841178 0.0444852 -0.16115215 0.045126487 0.08383812 -0.018965973 0.084031224

policy_bn.weight f4 [8]
00000000: b962 9a3f f194 9e3f bf3a 9f3f 7f3b 973f
00000010: aab1 9e3f 2afe 9e3f 7e6b 9a3f 968f 993f
1.2061378 1.2389203 1.2439803 1.1815032 1.2397969 1.2421315 1.2064054 1.1996944

policy_bn.bias f4 [8]
00000000: b04a 293e e9df 4c3e e7f3 463e 2ab0 173e
00000010: c582 5d3e c96e 663e f847 2c3e 87ab 393e
0.16532397 0.2000729 0.19428979 0.14813295 0.21631916 0.22503199 0.16824329 0.18131839

policy_bn.running_mean f4 [8]
00000000: 5df9 af3e d0b4 723d ae45 f13e 792c 9ebe
00000010: a4ef c93e c099 953d 92d5 f9bd f2cf 663e
0.34369937 0.059254467 0.47123474 -0.30893305 0.39440644 0.07304716 -0.121989384 0.22540262

policy_bn.running_var f4 [8]
00000000: 1647 b53d ea2a c23d ae29 d03d f187 973d
00000010: c729 193e 597f e13d b50f ec3d 034f ea3d
0.08851449 0.094808415 0.101642 0.07398976 0.14957343 0.11010618 0.115264334 0.114408515

policy_fc.weight f4 [9, 72]
00000000: 4c5a bfbd 7307 ab3d 5fa4 64bc f320 353d
00000010: 6a48 9a3d 93da 593d 72ba 9dbd eca5 653e
00000020: e5bc ec3d 98be debd 5b1a 53bd d1c5 d0bd
00000030: 6f99 943c 5ff1 3e3d 006a 3f3c 5e9e f93d
00000040: d61c 323e a008 45bd fd7a b4bd df81 a53d
00000050: 674f f23d 2704 72bd dcc5 02bb 3fbc a7bc
00000060: 0f39 893d c2eb 0bbe 84eb 1fbe 5619 413e
00000070: a66b 3a3e 4e64 a43a 3fe0 6dbc 539b 003e
00000080: 4203 aebd 0dd9 f5bd 84f3 b3bd 506a b33d
00000090: 43b0 97be 5627 76be 4421 d1bd a1fe 96bc
000000a0: b6ce 35be 8e7d 963d 1b7f 3d3e f59a e3bd
000000b0: 88c6 8bba 8136 183e 8f8c 303d 46ee 65be
000000c0: e414 66be d001 f2bd fc0b 35bd 355f 07bd
000000d0: cff2 ec3d 4e8d 143e 333b 083e 7da0 63bd
000000e0: f1b9 843d e64d d13d d900 24bd efac 67bd
000000f0: 2733 de3d f440 9ebd 219a 81bb 83ce 3abe
00000100: 69b5 51bd 9345 153e 2745 9f3d c4bb 24be
00000110: 1b0c 2b3e 0d98 03be 2fb4 4d3d f5f2 11bd
00000120: 785c f23c 6ab8 033e bc63 8cbd 5cca 8abd
00000130: 4520 e33c 9b50 1abe 0d58 56be a867 073e
00000140: 7cf3 0b3e 15eb e23d f256 a43d 75ee 5abe
00000150: 1b19 ed3d e4b6 3fbd 5152 7fbd 148d b2bd
00000160: 80b0 2abe 6fff de3c 5237 41bd 606e 0d3d
00000170: c32b 2bbd 1cf5 c43a fdb5 22bd 5b30 263e
00000180: e62b 56be 7865 b0bd 5f8a 11be 9738 32bd
00000190: 4512 9d3d 3621 a43c 5ef9 8ebd 7b70 523d
000001a0: 0d88 e9ba c4c0 203e 9066 db3d c4e5 a6bd
000001b0: 7809 94bd db4a 183e 94c1 1a3d ba11 ba3d
000001c0: 9cd7 c1bb a506 a63b 7b1e 7cbe 0174 1e3e
000001d0: 0b09 c43d cbdd d93d e096 0ebc 6a01 513e
000001e0: b04e 94bd 5954 d03c 5770 273d b428 37bc
000001f0: 0d3d b1bd b490 8f3d ff52 13be 3abb a93d
00000200: cc80 67bd 4f0d b8bd 49dd d8bc 2db8 4bbe
00000210: 72ff eebd 759e 433e 0557 38be 846b d0bc
00000220: 376a 7bbd 60cf 583d c637 2cbe 2026 173e
00000230: 43c4 c1bd bdfd 82be 6f71 c9bd d5b8 343e
00000240: 60db 2fbe 00c4 fa3d 02e0 2a3e d481 cabd
00000250: ebd7 9dbd 1ae7 3f3d 69e4 9a3d 633a 87be
00000260: 9827 dd3d 443c 353d 6181 77bd cc5e cdbd
00000270: d847 983d a6dd 3c3c 6891 013e f4b9 ae3c
00000280: 3bb6 1bbe 3caf 3abd 25b1 ed3d 5a6d 1abe
00000290: 8230 97bc 657b 1b3e 5bcc b93c 8fd0 f6bb
000002a0: c0a2 5f3d d79c 9abd 5fc1 bc3c 6acc 58bd
000002b0: 2b91 fd3c 1230 1a3d 7c15 563e 5cb1 713d
000002c0: 4eb2 4dbe 5cdd 3dbd df86 c6bd dea2 133e
000002d0: 35e7 233e 8951 32be 0e33 043e 1e47 33be
000002e0: e8a2 1e3d 1d1e 17be 6654 3e3d 1985 34be
000002f0: 0bcc cebd 9307 503b 6adc da3d dfda 123e
00000300: 9d26 74bd baff 29bd 4197 3ebd 8188 a63c
00000310: 7615 1fbc 993d 833d 4da1 d9bd cef7 93bd
00000320: 944c 8fbd ac3e 223d a666 14be a973 153e
00000330: cc13 a4bc 3ea3 f83d 0e8a 6b3e 7e4f 1ebc
00000340: 2342 37be 1cd2 353e d55f a3bd e481 18be
00000350: 6103 013d f36c 69bd 707a 93bd 0b2a 95bc
00000360: 480d 38be 290a d9bb 622b d4bd 9b3d c43d
00000370: bd71 dbbc 932c 9bbd 8789 3abd 7d33 6abd
00000380: 4aa8 c63d b1ee 053e 083a 84bd 663b 40be
00000390: 27c2 4dbe 9696 333d 6eb5 353b d229 f5bc
000003a0: 7dea cb3d 3591 42be 7608 dbbd 5ce7 5fbe
000003b0: 3dee b9bd b2a1 243d 7f4e 85bd 51e0 9bbd
000003c0: cfd1 67be ce9b 453e 20c4 d33d 2507 96bd
000003d0: 3098 09be 51d0 393e e7df 66bd 02aa 3f3e
000003e0: f3c8 6d3d 1da7 07be 30a6 543e 369b 1b3a
000003f0: 4d89 a13d f26c 873d d1f1 c83c 9938 b7bc
-0.09343395 0.0835103 -0.013955205 0.044220876 0.07533343 0.053186964 -0.07701577 0.22426575
0.11559466 -0.108761966 -0.051538806 -0.101939805 0.01813957 0.04661691 0.011682987 0.12188409
0.17393813 -0.04810393 -0.08812521 0.080814116 0.11831551 -0.05908599 -0.001995436 -0.020475505
0.06700336 -0.13664153 -0.15617186 0.18857321 0.18205127 0.00125421 -0.0145187965 0.12559251
-0.08496715 -0.1200429 -0.08786681 0.08760512 -0.29626665 -0.24038443 -0.10211423 -0.018431963
-0.17754635 0.073481664 0.18505518 -0.1111354 -0.0010664025 0.14864542 0.043102797 -0.22454175
-0.22468907 -0.11816752 -0.044200882 -0.03304978 0.115697496 0.14507028 0.13303833 -0.055572975
0.06480778 0.10219936 -0.04003987 -0.056561407 0.108496 -0.077272326 -0.003955141 -0.1824284
-0.051198397 0.14577322 0.07776862 -0.16087252 0.16703837 -0.12850972 0.050220665 -0.035632093
0.029585108 0.12863317 -0.0685496 -0.06776878 0.027725348 -0.15069811 -0.20932026 0.13223135
0.136671 0.110799946 0.08024396 -0.21380027 0.11577054 -0.046805277 -0.062334362 -0.08718315
-0.16668892 0.02722141 -0.0471719 0.03452909 -0.04178978 0.0015026662 -0.03972434 0.16229384
-0.20915183 -0.08613104 -0.1421294 -0.043511 0.076695 0.020035367 -0.06981157 0.0513768
-0.0017817036 0.15698534 0.107129216 -0.08149293 -0.072283685 0.14872305 0.037782267 0.09085412
-0.005915595 0.00506671 -0.24621002 0.1547394 0.09572037 0.10638007 -0.008702964 0.20410696
-0.07241571 0.025430845 0.04087862 -0.011179138 -0.08654223 0.07010022 -0.14387129 0.08287664
-0.056519315 -0.089869134 -0.026472704 -0.19894476 -0.11669816 0.19103415 -0.18001945 -0.025441892
-0.06138059 0.052932143 -0.16818151 0.14760637 -0.09461262 -0.25584212 -0.09836089 0.17648633
-0.17173529 0.12244415 0.16687015 -0.09888044 -0.07707199 0.046851255 0.07563097 -0.26411733
0.107985675 0.044246927 -0.06042612 -0.10027847 0.07435578 0.0115274545 0.12653124 0.021328904
-0.15206234 -0.045577273 0.11606053 -0.15080777 -0.018455748 0.1518379 0.022680452 -0.0075321863
0.05459857 -0.07549446 0.023041425 -0.05292932 0.03095301 0.0376435 0.20906633 0.059007034
-0.20087549 -0.046353683 -0.09693693 0.14417598 0.16006167 -0.17413916 0.12910101 -0.17507598
0.03872958 -0.14757581 0.046467207 -0.17628898 -0.10097512 0.0031742796 0.10686572 0.14341305
-0.059607137 -0.041503645 -0.046530966 0.020328762 -0.0097097065 0.06408233 -0.10626469 -0.07224999
-0.06997028 0.03961055 -0.14492282 0.14594902 -0.020028971 0.12140511 0.23001882 -0.009662507
-0.17896323 0.17755932 -0.07977263 -0.148933 0.031497363 -0.056988668 -0.072010875 -0.018208524
-0.17973816 -0.0066235256 -0.10359837 0.09582063 -0.026787633 -0.07576861 -0.045541313 -0.05717801
0.09700067 0.13079335 -0.06456381 -0.18772659 -0.20093594 0.04384478 0.0027726549 -0.029927168
0.099568345 -0.19000705 -0.10694973 -0.218656 -0.090786435 0.040193267 -0.065091126 -0.07611144
-0.2263863 0.19297716 0.10340142 -0.073255815 -0.13436961 0.18145873 -0.056365874 0.18717197
0.05805297 -0.13247342 0.2076652 0.0005935909 0.07887516 0.066125765 0.02452937 -0.022365855

policy_fc.bias f4 [9]
00000000: 8596 e2bd f3d3 e2bd 77b5 e13d 89bf aebd
00000010: b5f5 85bd 8d6b 95bd bd7f 743d 1311 d23c
00000020: afb0 2cbc
-0.110638656 -0.11075582 0.1102094 -0.08532626 -0.065410055 -0.07295904 0.059692133 0.025642907
-0.0105401715

value_conv.weight f4 [4, 32, 1, 1]
00000000: a52b eabd fe3d 10be bde5 f5bd b145 ffbd
00000010: 66a6 48bd a627 94bd 6647 de3d 87cd 643c
00000020: b30b 94bd ca52 9fbc f1d0 043e dff3 80bd
00000030: 2b7b c83d 95b2 21be 3563 b73d b8b0 29bc
00000040: 6098 20be 9db1 143e 62c7 0b3d b263 063c
00000050: 98fd eb3d 1407 29bc a1db 313e b415 203e
00000060: 64be d7bd 3dbb f5bc db0e f3bc 596d cbbd
00000070: f20c 023e bd81 873d d75a f0bd 08b8 f3bd
00000080: a70f 213e 7462 f0bd 5569 273e 108f 2ebe
00000090: 6a4d cebb 8e2d 963d 29d7 48bc f6af 2a3d
000000a0: e32b 553c b21b 44be 9224 143e 7509 eebc
000000b0: 41ac 5d3d f11a 6a3d 9af3 873d 10fc a3bd
000000c0: 52d5 d83d 8d34 94bd 3cd0 c5bc 8dea b23d
000000d0: db30 0abe 6442 2a3e 306f 833d 6f77 123e
000000e0: fbf6 90bd 1da4 913d c8cd 19be 51e8 21bd
000000f0: a28b d63c 5023 9b3b b9a7 27be 6507 0a3e
00000100: 1cf9 1ebd e623 7fbc 2ad8 b23d 8169 1e3e
00000110: 8dc6 04be 5951 fdbd 93d6 04be 5257 2bbe
00000120: 2f99 88bd b692 bcbd 60d4 08bc fc89 45bc
00000130: 73ae d23d 62be 98bd ca19 453e aaea 69bc
00000140: b906 ffbd e5c5 d83d d9fd 0f3e accc 9b3d
00000150: 1a45 26be 0515 68bd 58e1 833d e373 583c
00000160: d7ce 70bd 32c8 063e 7396 383e 6426 b7bc
00000170: aec1 94bc f43a 713d b33e 32bc 2b56 973d
00000180: 0bd2 0c3e 68ee 9f3d 6501 03be e2fa c9bc
00000190: 7d6b 74bd f12e a1bd c5b7 013e dde1 9d3d
000001a0: 62d9 02bc 2c91 06bd ce05 763c bc18 ddbc
000001b0: 7ada 7c3d 8a20 33be 6493 b9bd f184 23be
000001c0: 678e 32be 34fc bf3d 5da3 e03d 21ea 33be
000001d0: 7ee2 1abe c4b7 1ebe e455 0f3e a246 013d
000001e0: 2f60 fe3d 7616 213e 2afb 36bd 796b 6b3d
000001f0: 54a4 b9bd b855 d4bd b20e 173e 2c8f 8cbd
-0.11434106 -0.14086148 -0.1200671 -0.124644645 -0.048986815 -0.07234125 0.10853462 0.013965017
-0.07228794 -0.019448657 0.1297033 -0.06296515 0.097891174 -0.1579078 0.08954469 -0.010357074
-0.15683126 0.14520879 0.034125693 0.00820248 0.115229785 -0.010316629 0.17368938 0.15633279
-0.10534361 -0.029996509 -0.02967017 -0.09932966 0.1270025 0.066165425 -0.11736076 -0.119003356
0.15728627 -0.117375284 0.16348775 -0.17046762 -0.0062958496 0.073329076 -0.012258329 0.041671716
0.013010952 -0.1915119 0.14467075 -0.029057244 0.054119352 0.0571546 0.0663826 -0.080070615
0.105875626 -0.07236586 -0.024147145 0.08736143 -0.134952 0.16626889 0.06417692 0.14303373
-0.07078358 0.0711138 -0.15019906 -0.039528195 0.026189629 0.004734434 -0.16372575 0.13479383
-0.038811788 -0.015572524 0.08732636 0.15469934 -0.12966366 -0.123690315 -0.12972479 -0.16732529
-0.066698425 -0.092076704 -0.008351415 -0.012056824 0.1028718 -0.07458188 0.19248119 -0.01427714
-0.12452454 0.105846204 0.14061679 0.076073974 -0.16237298 -0.05666067 0.06439465 0.013211223
-0.058791008 0.13162306 0.18026142 -0.022357173 -0.01815876 0.058894113 -0.0108792065 0.07389482
0.13752 0.07809144 -0.127935 -0.024655763 -0.05967282 -0.078702815 0.12667759 0.077090956
-0.007986398 -0.03285329 0.015016032 -0.026989333 0.061731793 -0.17492881 -0.09061316 -0.15968682
-0.17437135 0.09374276 0.10968659 -0.17569782 -0.15125462 -0.15499789 0.13997608 0.0315615
0.12420689 0.15731224 -0.044673122 0.05747554 -0.09064546 -0.10367912 0.147517 -0.06863245

value_conv.bias f4 [4]
00000000: 2b24 2a3d fa2a 1ebe 2096 e43b 9db2 3bbd
0.0415384 -0.15446082 0.006975904 -0.045824636

value_bn.weight f4 [4]
00000000: bfc3 803f e347 833f 2118 7f3f 6ded 7e3f
1.0059737 1.0256313 0.9964619 0.99581033

value_bn.bias f4 [4]
00000000: 26af 9dbc d688 23bc d992 d6bc 1a66 2abc
-0.019248556 -0.009981355 -0.02619307 -0.0104003195

value_bn.running_mean f4 [4]
00000000: 302b c7bd 6e6c c2bb 2952 313d b43f 53be
-0.09725034 -0.005933336 0.043291245 -0.2062977

value_bn.running_var f4 [4]
00000000: 0c64 d43d 1755 973d 9a21 f63d efb3 d03d
0.10370645 0.073892765 0.12018128 0.101905696

value_fc1.weight f4 [32, 36]
00000000: f412 553d b95d b93d 814d 123d 3e67 46be
00000010: f2d4 15bd de6a b7bd d814 663b 0e8d 06be
00000020: a8be 41bd 6040 b4bd 6050 89bd 1e43 21be
00000030: b936 be3d 2c02 a9bd 857b 033e 9127 953d
00000040: 5de1 a3bd a5d0 513b 2ef4 413d 147b 87bd
00000050: e5e2 edbd 30a4 b3bd c05a d5bd 2dcb 103c
00000060: 4017 49bc 0fab 9b3d 9112 283e 5143 e63d
00000070: c4ba 263d d9ff 94bd 2f1d ef3d 561e cdbc
00000080: cfd4 1bbe 3a2b 1dbe 7ce2 493d 28d0 67bd
00000090: c402 a5bd db2f 04bd 5279 09be 673c 143e
000000a0: 629c 2c3d de09 a4bd 2052 053d 7075 c2bd
000000b0: abc2 51bd a55f bf3d f451 bebd 0e81 a4bd
000000c0: 2bf8 b3bb fecf e1bd 3534 233e e044 0d3a
000000d0: a67b a4bd 1f0b 00be d18a 043e 41d8 a43b
000000e0: 0d8c 2e3e a8d2 8dbc 154c e43d 0fe9 3d3d
000000f0: 35af 4e3d 90ab d33d 9c35 b4bd feeb 26be
00000100: 1041 c93c 1947 b43d c5a2 34be c0a8 033e
00000110: 6602 15be e912 163e fe03 9f3d 3f37 cd3c
00000120: 2857 35be 41e6 8ebd c533 e5bd 28b8 f43d
00000130: 2b55 e23d 7928 78bd 1038 87bd 19cd 0e3e
00000140: 4b82 153e df05 77bd d16a 2f3e d568 eebd
00000150: d06e 863c 28b9 44bd 0dd9 2d3e 6896 2a3e
00000160: bf2a 3dbc 80d1 d1bc 24a7 873d ba6c 693d
00000170: abc6 313c 636c d7bd 7348 fc3d a6eb ecbc
00000180: 5560 5e3d 0fc0 023e e34d 263e 5591 c5bd
00000190: 33ec 90bd 2eed 25be 1849 043e b59f 8e3d
000001a0: 0f65 d5bd a530 c8bd df3c 013e ffc2 443d
000001b0: 1cf6 3cbd b26f e63d 3154 bf3d 6e92 7a3d
000001c0: 5628 f8bd 63b9 87bc 40ad 213e a716 203d
000001d0: 8dc5 afbd 6a59 56bd 5895 1e3e 2fbb bd3c
000001e0: 5b41 06be 9d79 38bd ded9 0d3d 69b6 1fbe
000001f0: d3c2 b63d 19e0 073e 6db1 43bc df49 a6bb
00000200: 67c6 e63d ee41 323e 597f 043e 2602 56bd
00000210: 505a 25be d730 883c 1289 de3d 2d8c 963d
00000220: c207 6bbd ea15 2abe 1f92 d9bd afe8 823c
00000230: 706a f53d 50f0 f6bd e44e ac3d e6d9 fd3c
00000240: 81af d5bd 57a4 36bd 3a6d ddbd b24a 94bd
00000250: c7a9 9bbd b06b 0e3e b041 de3d 205b 9abd
00000260: 28ce 0cbe c564 10be ee3a 02be 7b8d 913c
00000270: 9628 acbc f717 67bd 14b0 e9bd 566d 94bd
00000280: 7398 3cbd d40d a33d 2532 9ebd 7646 08be
00000290: bd2a 253e 44da 883d 98a3 3d3e dc86 01be
000002a0: 5b31 613d 3e38 2fbc 48c0 353d 6f00 af3d
000002b0: 1ad2 ed3d 698f 99bc 3382 613d 1fc4 a13d
000002c0: ff63 99bd 3934 063e 1035 c53c f5d1 a2bd
000002d0: 5e1b db3d 446e 20be 5d96 f23d dda9 dd3d
000002e0: 7077 d73d aa10 93bc 7f6e 17be cbd3 e5bd
000002f0: af04 773d 3a4b 593d 34f2 f3bd 96c9 853d
00000300: 880c 113e 3136 82bd 3a12 bbbc d8e2 1fbe
00000310: 497c 243e 3bee e5bd b7e9 9b3d 4550 163e
00000320: 4a97 1dbe 1ba8 1abe bc87 ac3d 3ff7 c43d
00000330: 84ab 073d 64b7 0d3c b1c7 203d b738 31bd
00000340: 6d04 0dbd f9bd b63d 6dec 24be 8dcb 0cbd
00000350: 93e4 ebbd 9aae e23d 8ad4 143d da3f ecbd
00000360: 1b56 953d d894 683d 9efe e93c 6d7a 8bbc
00000370: 2df2 a43b 1227 abbc 3f2b 7bbc 0315 81bd
00000380: efc7 af3d 7bea 30bd 07d0 383e beda 083c
00000390: b1d8 96bd 39cf cd3a 4cfd b63b d0d7 053e
000003a0: ff3e d13c 6e88 fc3c bf2d 61bd 4727 0a3d
000003b0: c989 77bd 6628 ba3d 7c18 0b3e 4ad7 75bc
000003c0: 82c4 343e 5ad6 0d3e e3af fb3d 8f70 bdbd
000003d0: 01a2 b1bd 311e 173e 0085 063e 76b2 a13d
000003e0: 3da1 073e dfd7 163e 8b33 24be 8623 293e
000003f0: eb79 0b3d ee9d 2ebe d6b1 423c f302 68bd
0.05202003 0.09051079 0.035718445 -0.19375321 -0.036580034 -0.0895593 0.0035107639 -0.13139746
-0.047300965 -0.08801341 -0.067047834 -0.1574826 0.09287781 -0.082523674 0.12840088 0.07282937
-0.08001969 0.003201523 0.04735201 -0.06615272 -0.11615542 -0.08771551 -0.104177 0.008837503
-0.01227361 0.07600986 0.16413333 0.11243308 0.040705457 -0.072753616 0.11675488 -0.02503888
-0.15217899 -0.15348521 0.049288258 -0.056594998 -0.08057168 -0.0322722 -0.13425186 0.14476167
0.042141326 -0.080096945 0.032549024 -0.09495056 -0.05121104 0.093444146 -0.09292975 -0.08032428
-0.0054922304 -0.110259995 0.15937884 0.00053889863 -0.080313966 -0.12504242 0.1294358 0.0050306623
0.17045613 -0.017312363 0.11147324 0.04636484 0.05046006 0.10335457 -0.08799288 -0.16300961
0.024567157 0.08802623 -0.17640217 0.12857342 -0.14551696 0.14655651 0.07764433 0.025050757
-0.17709029 -0.06977511 -0.11191515 0.119491875 0.11051401 -0.060585473 -0.0660249 0.13945426
0.14600484 -0.060308333 0.17130591 -0.11641089 0.016410261 -0.04802814 0.1697733 0.16658938
-0.011545836 -0.025612593 0.066236764 0.056988455 0.010850589 -0.1051872 0.12318506 -0.02892096
0.054291088 0.12768577 0.16240649 -0.096468605 -0.070763014 -0.16203758 0.12918508 0.069640554
-0.10419666 -0.09774903 0.12620877 0.048037525 -0.046133146 0.11251773 0.0934223 0.061174802
-0.121170685 -0.016567891 0.15788746 0.039084103 -0.08582602 -0.052331366 0.15486658 0.023160545
-0.13110869 -0.045037854 0.034631602 -0.15596928 0.089238785 0.1326908 -0.011944157 -0.005074724
0.11268311 0.17407963 0.12939204 -0.052248143 -0.16147733 0.016624851 0.10865988 0.07350955
-0.057380445 -0.16609922 -0.106235735 0.015980093 0.11983192 -0.12057555 0.08413485 0.030987691
-0.10433865 -0.04459032 -0.10811849 -0.072408095 -0.07600742 0.13908267 0.10852373 -0.07536912
-0.13750517 -0.1410094 -0.12717792 0.017767658 -0.021015447 -0.05641934 -0.11410537 -0.07247417
-0.046043824 0.07961622 -0.07724408 -0.13308129 0.16129585 0.06682256 0.18519437 -0.12649101
0.05497871 -0.0106945615 0.044372827 0.085450046 0.11612339 -0.018745141 0.05505581 0.07898735
-0.07489776 0.13105859 0.024073154 -0.079502024 0.10698579 -0.15667063 0.11845086 0.108234145
0.10520828 -0.017952282 -0.14788245 -0.11222037 0.0603072 0.053050257 -0.11911431 0.0653259
0.14164937 -0.063579924 -0.02283584 -0.15613878 0.16063036 -0.112270795 0.07612937 0.14679058
-0.15389743 -0.1510319 0.08424327 0.09617471 0.033122554 0.008649681 0.03925294 -0.043266978
-0.03442805 0.08922953 -0.16105814 -0.03437381 -0.115182064 0.11068459 0.036335506 -0.11535616
0.07291814 0.056782573 0.028563794 -0.01702615 0.0050337524 -0.020892654 -0.015330135 -0.06302836
0.08583056 -0.043192368 0.18048106 0.008352933 -0.07365549 0.0015702016 0.0055843946 0.13070607
0.025542734 0.030826773 -0.054975267 0.033728864 -0.060434137 0.09089737 0.13583559 -0.015004942
0.17653087 0.138513 0.12289407 -0.092499845 -0.08673478 0.14757611 0.13136673 0.07895367
0.13245101 0.14730786 -0.16035287 0.16517457 0.034051817 -0.17052433 0.01188322 -0.056643438

value_fc1.bias f4 [32]
00000000: bd9d 0c3d a8ea 273e b57b ff3c bef1 c03d
00000010: b7c3 84bd 1cdf 7bbd d731 013d 983b 10be
00000020: 44a1 a0bd 925f a6bd 66cc b33d 2492 db3d
00000030: f48b abbd 1c4e af3c 8204 0dbe 7300 24be
00000040: bc2a ddbd 601a e6bd 9861 003e a136 6ebd
00000050: a7b3 d23d 41a3 17be 2541 e8bd 7396 223e
00000060: 89a1 a43d 9be4 b73d a04b 4dbd db6a 0e3e
00000070: f9e4 e73d a022 3e3c 4ae7 a13b d8e4 e438
0.03433012 0.16398108 0.031186918 0.09421109 -0.06482642 -0.06149207 0.03154167 -0.14085233
-0.07843259 -0.08123697 0.0877922 0.107212335 -0.08376303 0.02139955 -0.13771251 -0.16015796
-0.107991666 -0.112354994 0.12537229 -0.058157567 0.10288172 -0.1480837 -0.1134055 0.15877704
0.08038623 0.0897915 -0.05012095 0.1390795 0.1132297 0.011604935 0.004940902 0.00010914513

value_fc2.weight f4 [1, 32]
00000000: 951e a53d 2589 23be b481 f63d 4a35 883d
00000010: 9078 c5bd a81a d3bd f5ae 283e 0b85 4ebc
00000020: 1517 0ebe 35b6 6a3d cb1a 443d 20f4 8d3d
00000030: 895d 7a3d 8df3 103e fb99 eebd 5690 3abe
00000040: 0c3c a2bd 2e17 e1bd 3f24 0f3e e412 563e
00000050: cd11 8a3d 5d34 663d 137e fc3d 5ed6 1a3e
00000060: e70a b53d bf10 503e fbab 21be 06f5 49bc
00000070: a6be ea3d 0cb0 f3bd 0b73 023d 1306 1bbd
0.08062474 -0.15970285 0.12036458 0.06650789 -0.09642136 -0.10307819 0.16472991 -0.012604962
-0.13875993 0.057302672 0.047877114 0.06931329 0.06112436 0.14155407 -0.11650463 -0.18219122
-0.07921609 -0.10990749 0.1397867 0.20905644 0.067416765 0.05620228 0.12328734 0.15120837
0.0883997 0.20318888 -0.15788262 -0.012326485 0.114621446 -0.11898813 0.031847995 -0.03784759

exp_avg f4 [16, 3, 3, 3]
00000000: 9796 a6bb c496 32bc 8ca7 943b bef0 a73b
00000010: ee05 c8bb c2ae df3b af0b 933b a15b dc3b
00000020: ab51 953b 222d 023b 6601 893b 8bbe 13bc
00000030: 5b6c 80bb 9ef6 13bb 589d b53b 8704 843b
00000040: ead0 6e3c bae5 8fb9 ebed e93a 305f 233c
00000050: d2c7 103c 103a 513b 0a4e 1f3c 6fc9 023c
00000060: 31dc c93a 888b ac3a 9a00 c43a de0b 983b
00000070: ffcc 1ebc 37f0 bdba 8e7b 953c 9cc1 3bbc
00000080: b4af 043b 2094 b63a fca0 cb3b 1db3 10bc
00000090: 8acc 8f3b 0861 023c 3be6 993b bd30 78bc
000000a0: f6f6 9abc 9326 09bc 1b39 b23b 8aff 743b
000000b0: 16a0 253a ae00 feba f961 bebb 43a4 1fbc
000000c0: 49e6 80ba 11b3 06bc 6844 5bbc 2e58 273b
000000d0: ceb4 13bc 1896 41bc 4e4b b33b 8f3a ccbb
000000e0: 5b14 053b 637f ba3a dc44 0d3d 3701 88bb
000000f0: bde7 133b c002 0abc 161f 433c b256 4a3a
00000100: 6e43 20bc 8639 b139 ff36 a0b9 2acd 7cbc
00000110: 9b19 853c 3a75 fa3b 5fdf 643b c1cc ccbb
00000120: 86b1 54bc 4e38 abbc c1af 88bc 5641 39bc
00000130: 5473 a8bc 4b6e 5ebc 304e 28bc 974f 7abc
00000140: 7776 15bc 8d5f f3bb 20cf 9cbb 0403 f83b
00000150: f0a3 30bc 4c3e 1a3d 6349 59ba a671 0f3c
00000160: e641 c03b 549f 0b3c 53c5 a3bc 2dc7 c4b7
00000170: 0d04 ab3b 083a 8bbb 4e8a 4ebc 707e f3bb
00000180: c2ef 00bb b816 1b3c b3db a93a 9cfe 4b3a
00000190: 7396 cbb9 4f28 a33a fca9 f0ba 98a3 afba
000001a0: f1e2 683b 7b2b 18bb c3ff 103c f9d1 9e3c
000001b0: ce05 3c38 a766 bcbb ff28 b8bb 9503 b739
000001c0: 7e0a 79bb 5934 a23b a72b 673c 4a85 083c
000001d0: 2fa2 87ba bc81 513a b7bf 91bb af1b 933b
000001e0: 6663 003b 2603 c3b8 61ce 3138 b662 223b
000001f0: e152 4aba f8c5 b1bb bfc3 c03a 6555 5f3b
00000200: ef38 0a3c 1149 313c 932d 073c aa7e be3b
00000210: c975 073c 5152 9d3b f302 10ba 7cda d73b
00000220: 51ee 183c e258 953b cdff b4bb 4494 0dbb
00000230: 82d6 16bc fb4d 69bb 9171 b93c 89fb 0d3c
00000240: a777 34bc b4c6 183c 7bce c0bb a137 86bb
00000250: 5370 a03c 1419 973c d0b6 003b ed36 acba
00000260: 8121 9fbb 0573 08bc d3b4 283c 03c0 c13b
00000270: e6f1 b4bb fb6d eb3b cde3 71ba 7e9f e0bb
00000280: 29ae 013c 5475 0f3a d816 c4bb f609 70bc
00000290: 2457 8abb eb92 973b 14bd b0bb 6d99 923b
000002a0: 0551 7a3b 2cc3 4ebc cdbf 6d3a ddc8 a8bc
000002b0: dd6c 6fbc 9536 04bb d665 63bc 4e64 983b
000002c0: 109a 07bc 2cde 3abc 6081 ca3b b51e c6bb
000002d0: fddf cbba 82b5 d1bb 67b1 c1bb 1113 5cb9
000002e0: 8a86 97bb c390 6ebb d1f2 3abb ae6c 17bc
000002f0: 5526 90bb 1301 af39 ee5f fcba a649 ecbb
00000300: 2671 c53b 5954 64bb f9a9 2dba 1c1e a23b
00000310: b189 00bc d215 b7b7 9d1c ddbb 7ab4 193c
00000320: b70e 8c3b 7fa4 c8b9 cd3c e4bb 5caa 95bb
00000330: 2af7 1dbc 3ed6 a0ba 8d0a d7ba 469b 2a3c
00000340: 93e8 a63b 326a 80bb b5f0 613c dacb 1e3c
00000350: 9c8d 18b9 0937 143c 95fc 00ba b772 19bc
00000360: f024 613b 10e6 cb3b 5d05 bf3b 6788 203c
00000370: b91b 743b 8dad 81bb 8a93 bdbb a18d 82bc
00000380: 1fc3 b9bb 1e92 db39 ccc1 82bc 5ab7 ecbb
00000390: e317 993c 7b09 e13b 75de c43b e168 19bc
000003a0: e514 96bb e9c6 313b 45ea 2bba 02f2 d93b
000003b0: fdc1 dbba c077 4839 0ff7 193c 5e13 30ba
000003c0: dda9 4c3b 30ed 323c dc6c ad3a b4ef 1b3b
000003d0: 59c0 ee3b 286d 3bbc 49e3 d5bb 5036 89bc
000003e0: 7f07 d5ba 73f6 d43a df66 1ebb e511 ee3c
000003f0: 734a 0dbc 5fbd d5bb 8071 143b 3293 45ba
-0.0050838697 -0.010900203 0.0045365747 0.0051251343 -0.0061042225 0.0068262527 0.004487477 0.00672479
0.0045568547 0.0019863327 0.004181075 -0.009017597 -0.003919167 -0.0022577415 0.0055424385 0.00402886
0.014576176 -0.00027446245 0.0017847394 0.009971425 0.008836703 0.0031925477 0.009723196 0.007982596
0.0015400705 0.0013164142 0.0014953793 0.0046400866 -0.00969243 -0.0014491145 0.018247392 -0.011459734
0.0020246329 0.0013929643 0.006214259 -0.008831766 0.0043883966 0.007957704 0.004696635 -0.015148339
-0.018916588 -0.008371013 0.0054389364 0.0037383758 0.0006318105 -0.0019378865 -0.005810019 -0.009743753
-0.0009834255 -0.008221404 -0.013383009 0.0025534737 -0.009015275 -0.01181557 0.0054716235 -0.0062325667
0.0020306322 0.0014228638 0.034489498 -0.0041505354 0.0022568547 -0.008423507 0.011909267 0.0007718607
-0.0097817015 0.0003380293 -0.00030558553 -0.015429774 0.016247561 0.007643369 0.0034923179 -0.0062499945
-0.012981778 -0.020900872 -0.016685368 -0.011307081 -0.020562805 -0.013576101 -0.010272548 -0.015277765
-0.0091224825 -0.007427162 -0.0047854334 0.007568719 -0.010781273 0.037657067 -0.00082888285 0.008755123
0.0058672307 0.0085218735 -0.019991552 -2.345777e-05 0.0052189888 -0.004248861 -0.012606217 -0.007430844
-0.0019674157 0.009465866 0.0012959152 0.0007781775 -0.0003883127 0.0012447926 -0.0018361206 -0.0013400195
0.0035535658 -0.0023219276 0.008850041 0.019387232 4.48281e-05 -0.005749542 -0.0056201215 0.0003490715
-0.0038000639 0.004950088 0.014109529 0.00833256 -0.0010348017 0.0007992049 -0.004447903 0.004489384
0.0019590496 -9.298911e-05 4.2392294e-05 0.0024778075 -0.00077180384 -0.005425211 0.0014706774 0.0034077999
0.008436426 0.010820643 0.008250612 0.0058134394 0.008267828 0.0048010726 -0.00054936035 0.0065873247
0.009334163 0.004557715 -0.005523658 -0.0021603266 -0.009206416 -0.0035599458 0.02263716 0.008665928
-0.0110148555 0.009324718 -0.0058839894 -0.004095987 0.01958481 0.018444575 0.0019640215 -0.0013138928
-0.004856289 -0.008328204 0.010297018 0.005912782 -0.0055220006 0.0071847416 -0.00092273654 -0.0068549505
0.007915058 0.00054725003 -0.0059841685 -0.014650812 -0.0042218138 0.0046256683 -0.0053936336 0.004473856
0.0038195264 -0.012619775 0.0009069413 -0.020603592 -0.014613357 -0.0020174135 -0.01387926 0.004650629
-0.008276477 -0.011405509 0.0061799735 -0.006046141 -0.0015554425 -0.0063998112 -0.0059110406 -0.00020987938
-0.0046241926 -0.0036402203 -0.0028526078 -0.00924222 -0.004399101 0.000333794 -0.0019254663 -0.007210928
0.0060254512 -0.0034840314 -0.0006624754 0.004947437 -0.007845328 -2.182546e-05 -0.0067477957 0.009381408
0.004274215 -0.00038269532 -0.006965256 -0.0045674276 -0.009641448 -0.001227088 -0.0016406343 0.010412997
0.005093643 -0.0039189095 0.013790299 0.009692157 -0.00014548603 0.0090463245 -0.000492045 -0.009365729
0.0034354292 0.006222494 0.005829497 0.009798146 0.003724797 -0.0039574564 -0.0057854103 -0.015936675
-0.005669012 0.000418798 -0.01596155 -0.0072240056 0.018688148 0.0068675852 0.0060079643 -0.009363384
-0.0045801275 0.0027126616 -0.0006558041 0.006651164 -0.0016766187 0.00019118097 0.009397282 -0.0006716753
0.0031229176 0.010920808 0.0013231295 0.0023793997 0.007286113 -0.011439599 -0.0065273386 -0.016749531
-0.0016252844 0.0016247764 -0.0024170203 0.029061267 -0.008623707 -0.006522819 0.002265066 -0.00075368874
